…
<p>The question is now. How can I additionally to the bag of words technique introduce the other features to my classifier?</p>

<p>Thanks in advance and if you need more information I am glad to provide those.</p>

<p>Edit: After adding the rows like suggested by @Guiem a new question regarding weight of the new feature. This Edit adds to that new question:</p>

<p>The shape of my train matrix is <code>(2554, 5286)</code>. The weird thing though is that it is this shape with and without the sentiment column added (Maybe the row is not added properly?)</p>

<p>If I print the Matrix I get the following output:</p>

<pre><code>  (0, 322)  0.0917594575712
  (0, 544)  0.196910480455
  (0, 556)  0.235630958238
  (0, 706)  0.137241420774
  (0, 1080) 0.211125349374
  (0, 1404) 0.216326271935
  (0, 1412) 0.191757369869
  (0, 2175) 0.128800602511
  (0, 2176) 0.271268708356
  (0, 2371) 0.123979845513
  (0, 2523) 0.406583720526
  (0, 3328) 0.278476810585
  (0, 3752) 0.203741786877
  (0, 3847) 0.301505063552
  (0, 4098) 0.213653538407
  (0, 4664) 0.0753937554096
  (0, 4676) 0.164498844366
  (0, 4738) 0.0844966331512
  (0, 4814) 0.251572721805
  (0, 5013) 0.201686066537
  (0, 5128) 0.21174469759
  (0, 5135) 0.187485844479
  (1, 291)  0.227264696182
  (1, 322)  0.0718526940442
  (1, 398)  0.118905396285
  : :
  (2553, 3165)  0.0985290985889
  (2553, 3172)  0.134514497354
  (2553, 3217)  0.0716087169489
  (2553, 3241)  0.172404983302
  (2553, 3342)  0.145912701013
  (2553, 3498)  0.149172538211
  (2553, 3772)  0.140598133976
  (2553, 4308)  0.0704700896603
  (2553, 4323)  0.0800039075449
  (2553, 4505)  0.163830579067
  (2553, 4663)  0.0513678549359
  (2553, 4664)  0.0681930862174
  (2553, 4738)  0.114639856277
  (2553, 4855)  0.140598133976
  (2553, 4942)  0.138370066422
  (2553, 4967)  0.143088901589
  (2553, 5001)  0.185244190321
  (2553, 5008)  0.0876615764151
  (2553, 5010)  0.108531807984
  (2553, 5053)  0.136354534152
  (2553, 5104)  0.0928665728295
  (2553, 5148)  0.171292088292
  (2553, 5152)  0.172404983302
  (2553, 5191)  0.104762377866
  (2553, 5265)  0.123712025565
</code></pre>

<p>I hope that helps a little or did you want some other information?</p>
","python, scikit-learn, text-classification","<p>One option would be to just add these two new features to your CountVectorizer matrix as <strong>columns</strong>.</p>

<p>As you are not performing any tf-idf, your count matrix is going to be filled with integers so you could encode your new columns as int values.</p>
…
lib/python2.7/site-packages/sklearn/pipeline.pyc in __init__(self, transformer_list, n_jobs, transformer_weights)
616         self.n_jobs = n_jobs
617         self.transformer_weights = transformer_weights
--&gt; 618         self._validate_transformers()
619 
620     def get_params(self, deep=True):

lib/python2.7/site-packages/sklearn/pipeline.pyc in _validate_transformers(self)
660                 raise TypeError(""All estimators should implement fit and ""
661                                 ""transform. '%s' (type %s) doesn't"" %
--&gt; 662                                 (t, type(t)))
663 
664     def _iter(self):

TypeError: All estimators should implement fit and transform. '  (0, 49025) 0.0575144797079

 (254741, 38401)    0.184394443164
 (254741, 201747)   0.186080393768
 (254741, 179231)   0.195062580945
 (254741, 156925)   0.211367771299
 (254741, 90026)    0.202458920022' (type &lt;class 'scipy.sparse.csr.csr_matrix'&gt;) doesn't
</code></pre>

<p><strong>Update</strong></p>

<p>Here's the solution:</p>

<pre><code>    count_vect = TfidfVectorizer(analyzer=u'char', ngram_range=ngram_range)
    training_docs_combined = [x[0] for x in training_documents] + [x[1] for x in training_documents]        
    X_train_counts = count_vect.fit_transform(training_docs_combined)
…
model.add(Embedding(max_words, 50, input_length=max_len))
model.add(LSTM(64))
model.add(Dense(256,name='FC1',activation='relu'))
model.add(Dropout(0.5))
model.add(Dense(1, activation='sigmoid'))
model.compile(optimizer='adam', loss='binary_crossentropy', metrics= 
             ['acc'])
print(model.summary())
</code></pre>

<p>This is the model summary and at the bottom end It is showing <strong>None</strong>.</p>

<pre><code>_________________________________________________________________
Layer (type)                 Output Shape              Param #   
=================================================================
embedding_1 (Embedding)      (None, 500, 50)           500000    
_________________________________________________________________
lstm_1 (LSTM)                (None, 64)                29440     
_________________________________________________________________
FC1 (Dense)                  (None, 256)               16640     
_________________________________________________________________
dropout_1 (Dropout)          (None, 256)               0         
_________________________________________________________________
dense_1 (Dense)              (None, 1)                 257       
=================================================================
Total params: 546,337
Trainable params: 546,337
Non-trainable params: 0
_________________________________________________________________
None
</code></pre>
","python, keras, lstm, text-classification","<p><code>model.summary()</code> returns nothing (<code>None</code>), and you are printing the return value of it. <code>model.summary()</code> already does the printing internally, there is no need to get confused with printing it manually, so just do:</p>
…
input_132 (InputLayer)          [(None, 2)]          0                                            
__________________________________________________________________________________________________
input_133 (InputLayer)          [(None, 16)]         0                                            
__________________________________________________________________________________________________
input_134 (InputLayer)          [(None, 6)]          0                                            
__________________________________________________________________________________________________
dense_189 (Dense)               (None, 64)           524352      flatten_70[0][0]                 
__________________________________________________________________________________________________
dense_192 (Dense)               (None, 64)           524352      flatten_71[0][0]                 
__________________________________________________________________________________________________
embedding_101 (Embedding)       (None, 2, 1)         2           input_130[0][0]                  
__________________________________________________________________________________________________
embedding_102 (Embedding)       (None, 2, 1)         2           input_131[0][0]                  
__________________________________________________________________________________________________
embedding_103 (Embedding)       (None, 2, 1)         2           input_132[0][0]                  
__________________________________________________________________________________________________
embedding_104 (Embedding)       (None, 16, 1)        16          input_133[0][0]                  
__________________________________________________________________________________________________
embedding_105 (Embedding)       (None, 6, 1)         6           input_134[0][0]                  
__________________________________________________________________________________________________
dense_190 (Dense)               (None, 32)           2080        dense_189[0][0]                  
__________________________________________________________________________________________________
dense_193 (Dense)               (None, 32)           2080        dense_192[0][0]                  
__________________________________________________________________________________________________
flatten_72 (Flatten)            (None, 2)            0           embedding_101[0][0]              
__________________________________________________________________________________________________
flatten_73 (Flatten)            (None, 2)            0           embedding_102[0][0]              
__________________________________________________________________________________________________
flatten_74 (Flatten)            (None, 2)            0           embedding_103[0][0]              
__________________________________________________________________________________________________
flatten_75 (Flatten)            (None, 16)           0           embedding_104[0][0]              
__________________________________________________________________________________________________
flatten_76 (Flatten)            (None, 6)            0           embedding_105[0][0]              
__________________________________________________________________________________________________
dense_191 (Dense)               (None, 4)            132         dense_190[0][0]                  
__________________________________________________________________________________________________
dense_194 (Dense)               (None, 4)            132         dense_193[0][0]                  
__________________________________________________________________________________________________
dense_195 (Dense)               (None, 1)            3           flatten_72[0][0]                 
__________________________________________________________________________________________________
dense_196 (Dense)               (None, 1)            3           flatten_73[0][0]                 
__________________________________________________________________________________________________
dense_197 (Dense)               (None, 1)            3           flatten_74[0][0]                 
__________________________________________________________________________________________________
dense_198 (Dense)               (None, 1)            17          flatten_75[0][0]                 
__________________________________________________________________________________________________
dense_199 (Dense)               (None, 1)            7           flatten_76[0][0]                 
__________________________________________________________________________________________________
concatenate_17 (Concatenate)    (None, 13)           0           dense_191[0][0]                  
                                                                 dense_194[0][0]                  
                                                                 dense_195[0][0]                  
                                                                 dense_196[0][0]                  
                                                                 dense_197[0][0]                  
                                                                 dense_198[0][0]                  
                                                                 dense_199[0][0]                  
__________________________________________________________________________________________________
dense_200 (Dense)               (None, 6)            84          concatenate_17[0][0]             
==================================================================================================
Total params: 2,333,273
Trainable params: 2,333,273
Non-trainable params: 0
__________________________________________________________________________________________________
Epoch 1/2
</code></pre>
<p>I wasn't able to understand what it means.</p>
<p>I do understand that the model expects 7 inputs (they're also being passed to it), so why it claims to only receive 1?</p>
…
