…
<pre><code>F:\Softwares\Anaconda\lib\site-packages\h5py\__init__.py:36: FutureWarning: Conversion of the second argument of issubdtype from `float` to `np.floating` is deprecated. In future, it will be treated as `np.float64 == np.dtype(float).type`.
from ._conv import register_converters as _register_converters
Using TensorFlow backend.
Extracting features &amp; training batches
Training...
_________________________________________________________________
Layer (type)                 Output Shape              Param #   
=================================================================
embedding_1 (Embedding)      (None, 134, 70)           42481880  
_________________________________________________________________
dropout_1 (Dropout)          (None, 134, 70)           0         
_________________________________________________________________
lstm_1 (LSTM)                (None, 128)               101888    
_________________________________________________________________
dense_1 (Dense)              (None, 64)                8256      
_________________________________________________________________
dropout_2 (Dropout)          (None, 64)                0         
_________________________________________________________________
activation_1 (Activation)    (None, 64)                0         
_________________________________________________________________
dense_2 (Dense)              (None, 1)                 65        
_________________________________________________________________
activation_2 (Activation)    (None, 1)                 0         
=================================================================
Total params: 42,592,089
Trainable params: 42,592,089
Non-trainable params: 0
_________________________________________________________________
None
Train on 360000 samples, validate on 90000 samples
Epoch 1/8
2018-12-08 15:56:04.680836: I T:\src\github\tensorflow\tensorflow\core\platform\cpu_feature_guard.cc:140] Your CPU supports instructions that this TensorFlow binary was not compiled to use: AVX2
…
ke words separated by space delimiter.</p>

<p>I want to use CountVectorizer and then  TF-IDF in order to create features of my dataset so i can do classification/text recognition with Random Forest. I looked into websites and i tried to do how they did. This is my code:</p>

<pre><code>data = pd.read_csv('updated-data ready.csv')
X = data.drop('class', axis = 1)
y = data['class']
vectorizer = CountVectorizer()
new_X = vectorizer.fit_transform(X)
tfidfconverter = TfidfTransformer()  
X1 = tfidfconverter.fit_transform(new_X)
print(X1)
</code></pre>

<p>But, i get this output...</p>

<pre><code>(0, 0)  1.0
</code></pre>

<p>which doesn't make sense at all. I tackled with some parameters and commented out the parts about TF-IDF. Here's my code:</p>

<pre><code>data = pd.read_csv('updated-data ready.csv')
X = data.drop('class', axis = 1)
y = data['class']
vectorizer = CountVectorizer(analyzer = 'char_wb',  \
                         tokenizer = None, \
                         preprocessor = None, \
                         stop_words = None, \
                         max_features = 5000)

new_X = vectorizer.fit_transform(X)
print(new_X)
</code></pre>

<p>and this is my output:</p>

<pre><code>(0, 4)  1
(0, 6)  1
(0, 2)  1
(0, 5)  1
(0, 1)  2
(0, 3)  1
(0, 0)  2
</code></pre>

<p>Am i missing something? Or am i too noob to understand? All i understood and want was/is if i do transform, i will receive a new dataset with so many features (regarding the words and their frequencies) plus label column. But, what i am getting is so far from it.</p>

<p>I repeat, all i want is to have a new dataset out of my dataset with reviews in which it has numbers, words as features, so Random Forest or other classification algorithms can do anything with it.</p>
…
sentiment_wv_model.add(embed_layer)
sentiment_wv_model.add(Dense(100, activation = 'sigmoid'))
sentiment_wv_model.add(Dense(32, activation = 'sigmoid'))
sentiment_wv_model.add(Dense(1, activation='softmax'))


#compile model and fit to train data
sentiment_wv_model.compile(loss = 'categorical_crossentropy',optimizer = 'adam', metrics =['accuracy'])

sentiment_wv_model.summary
_________________________________________________________________
 Layer (type)                Output Shape              Param #   
=================================================================
 embedding_1 (Embedding)     (None, 1000, 100)         3631400   
                                                                 
 dense (Dense)               (None, 1000, 100)         10100     
                                                                 
 dense_1 (Dense)             (None, 1000, 32)          3232      
                                                                 
 dense_2 (Dense)             (None, 1000, 2)           66        
                                                                 
 dense_3 (Dense)             (None, 1000, 1)           3         
                                                                 
 dense_4 (Dense)             (None, 1000, 100)         200       
                                                                 
 dense_5 (Dense)             (None, 1000, 32)          3232      
                                                                 
 dense_6 (Dense)             (None, 1000, 1)           33        
                                                                 
=================================================================
Total params: 3,648,266
Trainable params: 3,648,266
Non-trainable params: 0
_________________________________________________________________


sentiment_wv_model.fit(X_train, y_train, batch_size = 32, epochs = 5, verbose =2)
</code></pre>
<p>Running this, I get the following error:</p>
…
